…
 06:22:44.984887: I tensorflow/core/common_runtime/gpu/gpu_device.cc:1402] Created TensorFlow device (/job:localhost/replica:0/task:0/device:GPU:0 with 10617 MB memory) -> physical GPU (device: 0, name: Tesla K80, pci bus id: 0000:00:1e.0, compute capability: 3.7)
Model: "functional_1"
__________________________________________________________________________________________________
Layer (type)                    Output Shape         Param #     Connected to                     
==================================================================================================
input_1 (InputLayer)            [(None, 240, 240, 3) 0                                            
__________________________________________________________________________________________________
convI (Conv2D)                  (None, 118, 118, 32) 2400        input_1[0][0]                    
__________________________________________________________________________________________________
batch_normalization (BatchNorma (None, 118, 118, 32) 128         convI[0][0]                      
__________________________________________________________________________________________________
lambda (Lambda)                 (None, 118, 118, 32) 0           batch_normalization[0][0]        
__________________________________________________________________________________________________
conv_2d_redu_1 (Conv2D)         (None, 118, 118, 16) 512         lambda[0][0]                     
__________________________________________________________________________________________________
atrous_redu_bn_1 (BatchNormaliz (None, 118, 118, 16) 64          conv_2d_redu_1[0][0]             
__________________________________________________________________________________________________
lambda_1 (Lambda)               (None, 118, 118, 16) 0           atrous_redu_bn_1[0][0]           
__________________________________________________________________________________________________
atrous_depth_conv_1_0 (Depthwis (None, 118, 118, 16) 144         lambda_1[0][0]                   
__________________________________________________________________________________________________
atrous_depth_conv_1_1 (Depthwis (None, 118, 118, 16) 144         lambda_1[0][0]                   
__________________________________________________________________________________________________
atrous_depth_conv_1_2 (Depthwis (None, 118, 118, 16) 144         lambda_1[0][0]                   
__________________________________________________________________________________________________
atrous_bn_1_0 (BatchNormalizati (None, 118, 118, 16) 64          atrous_depth_conv_1_0[0][0]      
__________________________________________________________________________________________________
atrous_bn_1_1 (BatchNormalizati (None, 118, 118, 16) 64          atrous_depth_conv_1_1[0][0]      
__________________________________________________________________________________________________
atrous_bn_1_2 (BatchNormalizati (None, 118, 118, 16) 64          atrous_depth_conv_1_2[0][0]      
__________________________________________________________________________________________________
lambda_2 (Lambda)               (None, 118, 118, 16) 0           atrous_bn_1_0[0][0]              
__________________________________________________________________________________________________
lambda_3 (Lambda)               (None, 118, 118, 16) 0           atrous_bn_1_1[0][0]              
__________________________________________________________________________________________________
lambda_4 (Lambda)               (None, 118, 118, 16) 0           atrous_bn_1_2[0][0]              
__________________________________________________________________________________________________
add_1 (Add)                     (None, 118, 118, 16) 0           lambda_1[0][0]                   
                                                                 lambda_2[0][0]                   
                                                                 lambda_3[0][0]                   
                                                                 lambda_4[0][0]                   
__________________________________________________________________________________________________
conv_2d_1 (Conv2D)              (None, 118, 118, 64) 1024        add_1[0][0]                      
__________________________________________________________________________________________________
cnv_bn_1 (BatchNormalization)   (None, 118, 118, 64) 256         conv_2d_1[0][0]                  
__________________________________________________________________________________________________
lambda_5 (Lambda)               (None, 118, 118, 64) 0           cnv_bn_1[0][0]                   
__________________________________________________________________________________________________
max_pooling2d (MaxPooling2D)    (None, 59, 59, 64)   0           lambda_5[0][0]                   
__________________________________________________________________________________________________
conv_2d_redu_2 (Conv2D)         (None, 59, 59, 32)   2048        max_pooling2d[0][0]              
__________________________________________________________________________________________________
atrous_redu_bn_2 (BatchNormaliz (None, 59, 59, 32)   128         conv_2d_redu_2[0][0]             
__________________________________________________________________________________________________
lambda_6 (Lambda)               (None, 59, 59, 32)   0           atrous_redu_bn_2[0][0]           
__________________________________________________________________________________________________
atrous_depth_conv_2_0 (Depthwis (None, 59, 59, 32)   288         lambda_6[0][0]                   
__________________________________________________________________________________________________
atrous_depth_conv_2_1 (Depthwis (None, 59, 59, 32)   288         lambda_6[0][0]                   
__________________________________________________________________________________________________
atrous_depth_conv_2_2 (Depthwis (None, 59, 59, 32)   288         lambda_6[0][0]                   
__________________________________________________________________________________________________
atrous_bn_2_0 (BatchNormalizati (None, 59, 59, 32)   128         atrous_depth_conv_2_0[0][0]      
__________________________________________________________________________________________________
atrous_bn_2_1 (BatchNormalizati (None, 59, 59, 32)   128         atrous_depth_conv_2_1[0][0]      
__________________________________________________________________________________________________
atrous_bn_2_2 (BatchNormalizati (None, 59, 59, 32)   128         atrous_depth_conv_2_2[0][0]      
__________________________________________________________________________________________________
lambda_7 (Lambda)               (None, 59, 59, 32)   0           atrous_bn_2_0[0][0]              
__________________________________________________________________________________________________
lambda_8 (Lambda)               (None, 59, 59, 32)   0           atrous_bn_2_1[0][0]              
__________________________________________________________________________________________________
lambda_9 (Lambda)               (None, 59, 59, 32)   0           atrous_bn_2_2[0][0]              
__________________________________________________________________________________________________
add_2 (Add)                     (None, 59, 59, 32)   0           lambda_6[0][0]                   
                                                                 lambda_7[0][0]                   
                                                                 lambda_8[0][0]                   
                                                                 lambda_9[0][0]                   
__________________________________________________________________________________________________
conv_2d_2 (Conv2D)              (None, 59, 59, 96)   3072        add_2[0][0]                      
__________________________________________________________________________________________________
cnv_bn_2 (BatchNormalization)   (None, 59, 59, 96)   384         conv_2d_2[0][0]                  
__________________________________________________________________________________________________
lambda_10 (Lambda)              (None, 59, 59, 96)   0           cnv_bn_2[0][0]                   
__________________________________________________________________________________________________
max_pooling2d_1 (MaxPooling2D)  (None, 29, 29, 96)   0           lambda_10[0][0]                  
__________________________________________________________________________________________________
conv_2d_redu_3 (Conv2D)         (None, 29, 29, 48)   4608        max_pooling2d_1[0][0]            
__________________________________________________________________________________________________
atrous_redu_bn_3 (BatchNormaliz (None, 29, 29, 48)   192         conv_2d_redu_3[0][0]             
__________________________________________________________________________________________________
lambda_11 (Lambda)              (None, 29, 29, 48)   0           atrous_redu_bn_3[0][0]           
__________________________________________________________________________________________________
atrous_depth_conv_3_0 (Depthwis (None, 29, 29, 48)   432         lambda_11[0][0]                  
__________________________________________________________________________________________________
atrous_depth_conv_3_1 (Depthwis (None, 29, 29, 48)   432         lambda_11[0][0]                  
__________________________________________________________________________________________________
atrous_depth_conv_3_2 (Depthwis (None, 29, 29, 48)   432         lambda_11[0][0]                  
__________________________________________________________________________________________________
atrous_bn_3_0 (BatchNormalizati (None, 29, 29, 48)   192         atrous_depth_conv_3_0[0][0]      
__________________________________________________________________________________________________
atrous_bn_3_1 (BatchNormalizati (None, 29, 29, 48)   192         atrous_depth_conv_3_1[0][0]      
__________________________________________________________________________________________________
atrous_bn_3_2 (BatchNormalizati (None, 29, 29, 48)   192         atrous_depth_conv_3_2[0][0]      
__________________________________________________________________________________________________
lambda_12 (Lambda)              (None, 29, 29, 48)   0           atrous_bn_3_0[0][0]              
__________________________________________________________________________________________________
lambda_13 (Lambda)              (None, 29, 29, 48)   0           atrous_bn_3_1[0][0]              
__________________________________________________________________________________________________
lambda_14 (Lambda)              (None, 29, 29, 48)   0           atrous_bn_3_2[0][0]              
__________________________________________________________________________________________________
add_3 (Add)                     (None, 29, 29, 48)   0           lambda_11[0][0]                  
                                                                 lambda_12[0][0]                  
                                                                 lambda_13[0][0]                  
                                                                 lambda_14[0][0]                  
__________________________________________________________________________________________________
conv_2d_3 (Conv2D)              (None, 29, 29, 128)  6144        add_3[0][0]                      
__________________________________________________________________________________________________
cnv_bn_3 (BatchNormalization)   (None, 29, 29, 128)  512         conv_2d_3[0][0]                  
__________________________________________________________________________________________________
lambda_15 (Lambda)              (None, 29, 29, 128)  0           cnv_bn_3[0][0]                   
__________________________________________________________________________________________________
max_pooling2d_2 (MaxPooling2D)  (None, 14, 14, 128)  0           lambda_15[0][0]                  
__________________________________________________________________________________________________
conv_2d_redu_4 (Conv2D)         (None, 14, 14, 64)   8192        max_pooling2d_2[0][0]            
__________________________________________________________________________________________________
atrous_redu_bn_4 (BatchNormaliz (None, 14, 14, 64)   256         conv_2d_redu_4[0][0]             
__________________________________________________________________________________________________
lambda_16 (Lambda)              (None, 14, 14, 64)   0           atrous_redu_bn_4[0][0]           
__________________________________________________________________________________________________
atrous_depth_conv_4_0 (Depthwis (None, 14, 14, 64)   576         lambda_16[0][0]                  
__________________________________________________________________________________________________
atrous_depth_conv_4_1 (Depthwis (None, 14, 14, 64)   576         lambda_16[0][0]                  
__________________________________________________________________________________________________
atrous_depth_conv_4_2 (Depthwis (None, 14, 14, 64)   576         lambda_16[0][0]                  
__________________________________________________________________________________________________
atrous_bn_4_0 (BatchNormalizati (None, 14, 14, 64)   256         atrous_depth_conv_4_0[0][0]      
__________________________________________________________________________________________________
atrous_bn_4_1 (BatchNormalizati (None, 14, 14, 64)   256         atrous_depth_conv_4_1[0][0]      
__________________________________________________________________________________________________
atrous_bn_4_2 (BatchNormalizati (None, 14, 14, 64)   256         atrous_depth_conv_4_2[0][0]      
__________________________________________________________________________________________________
lambda_17 (Lambda)              (None, 14, 14, 64)   0           atrous_bn_4_0[0][0]              
__________________________________________________________________________________________________
lambda_18 (Lambda)              (None, 14, 14, 64)   0           atrous_bn_4_1[0][0]              
__________________________________________________________________________________________________
lambda_19 (Lambda)              (None, 14, 14, 64)   0           atrous_bn_4_2[0][0]              
__________________________________________________________________________________________________
add_4 (Add)                     (None, 14, 14, 64)   0           lambda_16[0][0]                  
                                                                 lambda_17[0][0]                  
                                                                 lambda_18[0][0]                  
                                                                 lambda_19[0][0]                  
__________________________________________________________________________________________________
conv_2d_4 (Conv2D)              (None, 14, 14, 128)  8192        add_4[0][0]                      
__________________________________________________________________________________________________
cnv_bn_4 (BatchNormalization)   (None, 14, 14, 128)  512         conv_2d_4[0][0]                  
__________________________________________________________________________________________________
lambda_20 (Lambda)              (None, 14, 14, 128)  0           cnv_bn_4[0][0]                   
__________________________________________________________________________________________________
conv_2d_redu_5 (Conv2D)         (None, 14, 14, 64)   8192        lambda_20[0][0]                  
__________________________________________________________________________________________________
atrous_redu_bn_5 (BatchNormaliz (None, 14, 14, 64)   256         conv_2d_redu_5[0][0]             
__________________________________________________________________________________________________
lambda_21 (Lambda)              (None, 14, 14, 64)   0           atrous_redu_bn_5[0][0]           
__________________________________________________________________________________________________
atrous_depth_conv_5_0 (Depthwis (None, 14, 14, 64)   576         lambda_21[0][0]                  
__________________________________________________________________________________________________
atrous_depth_conv_5_1 (Depthwis (None, 14, 14, 64)   576         lambda_21[0][0]                  
__________________________________________________________________________________________________
atrous_depth_conv_5_2 (Depthwis (None, 14, 14, 64)   576         lambda_21[0][0]                  
__________________________________________________________________________________________________
atrous_bn_5_0 (BatchNormalizati (None, 14, 14, 64)   256         atrous_depth_conv_5_0[0][0]      
__________________________________________________________________________________________________
atrous_bn_5_1 (BatchNormalizati (None, 14, 14, 64)   256         atrous_depth_conv_5_1[0][0]      
__________________________________________________________________________________________________
atrous_bn_5_2 (BatchNormalizati (None, 14, 14, 64)   256         atrous_depth_conv_5_2[0][0]      
__________________________________________________________________________________________________
lambda_22 (Lambda)              (None, 14, 14, 64)   0           atrous_bn_5_0[0][0]              
__________________________________________________________________________________________________
lambda_23 (Lambda)              (None, 14, 14, 64)   0           atrous_bn_5_1[0][0]              
__________________________________________________________________________________________________
lambda_24 (Lambda)              (None, 14, 14, 64)   0           atrous_bn_5_2[0][0]              
__________________________________________________________________________________________________
add_5 (Add)                     (None, 14, 14, 64)   0           lambda_21[0][0]                  
                                                                 lambda_22[0][0]                  
                                                                 lambda_23[0][0]                  
                                                                 lambda_24[0][0]                  
__________________________________________________________________________________________________
conv_2d_5 (Conv2D)              (None, 14, 14, 128)  8192        add_5[0][0]                      
__________________________________________________________________________________________________
cnv_bn_5 (BatchNormalization)   (None, 14, 14, 128)  512         conv_2d_5[0][0]                  
__________________________________________________________________________________________________
lambda_25 (Lambda)              (None, 14, 14, 128)  0           cnv_bn_5[0][0]                   
__________________________________________________________________________________________________
conv_2d_redu_6 (Conv2D)         (None, 14, 14, 64)   8192        lambda_25[0][0]                  
__________________________________________________________________________________________________
atrous_redu_bn_6 (BatchNormaliz (None, 14, 14, 64)   256         conv_2d_redu_6[0][0]             
__________________________________________________________________________________________________
lambda_26 (Lambda)              (None, 14, 14, 64)   0           atrous_redu_bn_6[0][0]           
__________________________________________________________________________________________________
atrous_depth_conv_6_0 (Depthwis (None, 14, 14, 64)   576         lambda_26[0][0]                  
__________________________________________________________________________________________________
atrous_depth_conv_6_1 (Depthwis (None, 14, 14, 64)   576         lambda_26[0][0]                  
__________________________________________________________________________________________________
atrous_depth_conv_6_2 (Depthwis (None, 14, 14, 64)   576         lambda_26[0][0]                  
__________________________________________________________________________________________________
atrous_bn_6_0 (BatchNormalizati (None, 14, 14, 64)   256         atrous_depth_conv_6_0[0][0]      
__________________________________________________________________________________________________
atrous_bn_6_1 (BatchNormalizati (None, 14, 14, 64)   256         atrous_depth_conv_6_1[0][0]      
__________________________________________________________________________________________________
atrous_bn_6_2 (BatchNormalizati (None, 14, 14, 64)   256         atrous_depth_conv_6_2[0][0]      
__________________________________________________________________________________________________
lambda_27 (Lambda)              (None, 14, 14, 64)   0           atrous_bn_6_0[0][0]              
__________________________________________________________________________________________________
lambda_28 (Lambda)              (None, 14, 14, 64)   0           atrous_bn_6_1[0][0]              
__________________________________________________________________________________________________
lambda_29 (Lambda)              (None, 14, 14, 64)   0           atrous_bn_6_2[0][0]              
__________________________________________________________________________________________________
add_6 (Add)                     (None, 14, 14, 64)   0           lambda_26[0][0]                  
                                                                 lambda_27[0][0]                  
                                                                 lambda_28[0][0]                  
                                                                 lambda_29[0][0]                  
__________________________________________________________________________________________________
conv_2d_6 (Conv2D)              (None, 14, 14, 256)  16384       add_6[0][0]                      
__________________________________________________________________________________________________
cnv_bn_6 (BatchNormalization)   (None, 14, 14, 256)  1024        conv_2d_6[0][0]                  
__________________________________________________________________________________________________
lambda_30 (Lambda)              (None, 14, 14, 256)  0           cnv_bn_6[0][0]                   
__________________________________________________________________________________________________
separable_conv2d (SeparableConv (None, 14, 14, 5)    1536        lambda_30[0][0]                  
__________________________________________________________________________________________________
batch_normalization_1 (BatchNor (None, 14, 14, 5)    20          separable_conv2d[0][0]           
__________________________________________________________________________________________________
lambda_31 (Lambda)              (None, 14, 14, 5)    0           batch_normalization_1[0][0]      
__________________________________________________________________________________________________
global_average_pooling2d (Globa (None, 5)            0           lambda_31[0][0]                  
__________________________________________________________________________________________________
class_branch (Activation)       (None, 5)            0           global_average_pooling2d[0][0]   
==================================================================================================
Total params: 94,420
Trainable params: 90,442
Non-trainable params: 3,978
__________________________________________________________________________________________________
Found 5147 images belonging to 5 classes.
Found 1286 images belonging to 5 classes.
…
